src/results/disc_learning/fraud/bias/H_coeff12_2_nobias_identity.npy (npy, 848 bytes, 1 tensors)

array f8 [30, 3]
-4.4575581550598145 2.799154758453369 -1.9955860376358032 0.21034717559814453 1.85030996799469 -3.74074649810791 -1.2992851734161377 -0.18369919061660767
2.348283052444458 -0.1114610806107521 0.697907030582428 0.4041673541069031 2.0166828632354736 -1.918311357498169 -0.9915124773979187 -1.0135810375213623
1.241331934928894 2.8385512828826904 0.7511825561523438 -0.776766836643219 -0.5832447409629822 0.5932239294052124 -3.919278144836426 5.423163890838623
-0.12830676138401031 0.6433759927749634 0.3649352490901947 0.11353939771652222 2.296893358230591 -6.371366500854492 2.539027452468872 -1.2413928508758545
-3.522986888885498 -0.34243565797805786 1.4217973947525024 -4.589395046234131 -0.22410361468791962 0.7327343821525574 -0.0036946157924830914 2.9275808334350586
2.06408953666687 -3.9458231925964355 6.916458606719971 2.2933156490325928 -4.280304431915283 -1.6130101680755615 -1.24535071849823 1.529839277267456
9.441356658935547 8.112264633178711 -4.518062591552734 1.8612267971038818 1.9244322776794434 -1.8779393434524536 3.2178378105163574 0.014862198382616043
4.500604629516602 9.279926300048828 6.61278772354126 -3.2089736461639404 12.4304780960083 10.75305461883545 -6.968111038208008 16.046064376831055
8.499690055847168 -6.299539089202881 7.952164173126221 5.809696197509766 -4.164992332458496 -4.1039934158325195 -2.597942590713501 5.452155113220215
-71.1395034790039 -52.84602737426758 21.903596878051758 -0.2788465917110443 1.5751464366912842 -2.9136364459991455 -10.250520706176758 -9.605443000793457
8.365653038024902 2.671488046646118 2.5601446628570557 -0.06323704123497009 10.854898452758789 8.175418853759766 -2.6073927879333496 -3.2885665893554688
-2.5386483669281006 4.156373023986816
00000000: 0000 0020 8ad4 11c0 0000 0040 ab64 0640
00000010: 0000 00a0 ebed ffbf 0000 0000 a8ec ca3f
00000020: 0000 00a0 de9a fd3f 0000 0080 0ced 0dc0
00000030: 0000 0040 dfc9 f4bf 0000 0080 7483 c7bf
00000040: 0000 00a0 48c9 0240 0000 00a0 b688 bcbf
00000050: 0000 0020 4155 e63f 0000 00c0 e0dd d93f
00000060: 0000 00a0 2a22 0040 0000 0040 67b1 febf
00000070: 0000 0060 78ba efbf 0000 00c0 a037 f0bf
00000080: 0000 00e0 7edc f33f 0000 0060 5ab5 0640
00000090: 0000 0000 b009 e83f 0000 0020 46db e8bf
000000a0: 0000 00e0 f0a9 e2bf 0000 00c0 b0fb e23f
000000b0: 0000 0080 ae5a 0fc0 0000 00e0 51b1 1540
000000c0: 0000 0020 5b6c c0bf 0000 0040 8996 e43f
000000d0: 0000 0060 195b d73f 0000 0000 eb10 bd3f
000000e0: 0000 00a0 0960 0240 0000 0080 477c 19c0
000000f0: 0000 00a0 ed4f 0440 0000 00c0 bedc f3bf
00000100: 0000 00c0 132f 0cc0 0000 0040 77ea d5bf
00000110: 0000 00a0 aebf f63f 0000 0060 8a5b 12c0
00000120: 0000 0060 6daf ccbf 0000 0060 8f72 e73f
00000130: 0000 00c0 2b44 6ebf 0000 0080 af6b 0740
00000140: 0000 0060 4183 0040 0000 00c0 0b91 0fc0
00000150: 0000 0020 74aa 1b40 0000 00e0 b558 0240
00000160: 0000 0020 081f 11c0 0000 00c0 e3ce f9bf
00000170: 0000 00e0 f4ec f3bf 0000 00c0 387a f83f
00000180: 0000 0080 f9e1 2240 0000 00c0 7a39 2040
00000190: 0000 0000 7f12 12c0 0000 00c0 95c7 fd3f
000001a0: 0000 0080 79ca fe3f 0000 0020 0a0c febf
000001b0: 0000 00c0 21be 0940 0000 0080 1270 8e3f
000001c0: 0000 0080 9e00 1240 0000 0080 528f 2240
000001d0: 0000 00a0 7e73 1a40 0000 0060 faab 09c0
000001e0: 0000 00a0 67dc 2840 0000 0060 9081 2540
000001f0: 0000 0080 58df 1bc0 0000 00e0 ca0b 3040
00000200: 0000 0060 d7ff 2040 0000 0060 ba32 19c0
00000210: 0000 0020 04cf 1f40 0000 0000 213d 1740
00000220: 0000 00c0 f3a8 10c0 0000 0040 7d6a 10c0
00000230: 0000 0020 96c8 04c0 0000 00c0 01cf 1540
00000240: 0000 00a0 edc8 51c0 0000 00a0 4a6c 4ac0
00000250: 0000 0020 52e7 3540 0000 0060 9fd8 d1bf
00000260: 0000 00c0 cc33 f93f 0000 00a0 204f 07c0
00000270: 0000 0040 4480 24c0 0000 00a0 fc35 23c0
00000280: 0000 00e0 36bb 2040 0000 0020 355f 0540
00000290: 0000 0020 2d7b 0440 0000 0080 4d30 b0bf
000002a0: 0000 0040 b5b5 2540 0000 0080 d059 2040
000002b0: 0000 00c0 f0db 04c0 0000 0000 fc4e 0ac0
000002c0: 0000 00e0 264f 04c0 0000 0040 20a0 1040
