src/results/temp_results_final_runs/temp_new_latest/disc_learning/fraud/bias/H_coeff12_2_bias_identity.npy (npy, 848 bytes, 1 tensors)

array f8 [30, 3]
-8.125286102294922 -1.0628337860107422 0.5208218693733215 4.558200359344482 1.2072702646255493 -0.6777195930480957 -0.5453817844390869 -0.33385100960731506
1.3774951696395874 -0.44379809498786926 0.04576866701245308 0.3337406516075134 4.656918525695801 -1.0193101167678833 -2.373260974884033 -2.5744361877441406
-0.31963223218917847 2.3737926483154297 0.4891259968280792 -0.3563428819179535 -0.7341706156730652 0.08651164174079895 -1.8199961185455322 0.6088767051696777
-0.3620602786540985 -0.3818742632865906 0.10403371602296829 1.849139928817749 0.5891520977020264 -2.7376644611358643 2.407203435897827 -1.0792818069458008
-3.1251394748687744 0.7747495174407959 1.0297256708145142 -1.4005566835403442 -0.45478135347366333 -0.5294062495231628 -0.07822800427675247 1.0948050022125244
-0.007320673670619726 -1.4234782457351685 1.4012709856033325 -0.7695881724357605 -1.8969107866287231 -0.9703660011291504 -2.0147547721862793 -0.2725115716457367
2.0353033542633057 -1.3602598905563354 -2.483358860015869 0.8915290832519531 -0.4434250593185425 -1.9107402563095093 -1.3774421215057373 -4.268255710601807
0.23631876707077026 0.37941351532936096 -0.9327468872070312 -1.1275908946990967 0.27838483452796936 -1.6556085348129272 -1.7431483268737793 1.9068107604980469
-0.778968870639801 -1.503257155418396 1.4653548002243042 -0.9007012844085693 -1.7349683046340942 -0.4242790639400482 -0.7156078815460205 0.8733106255531311
-3.1348791122436523 2.7670040130615234 3.9344937801361084 5.307701110839844 -1.1582071781158447 -0.6820647120475769 -5.655605316162109 3.4145939350128174
-0.28097644448280334 0.08090684562921524 -0.6441909670829773 -1.3583428859710693 5.0266876220703125 -3.564209461212158 -4.886047840118408 -1.4604347944259644
-0.24395376443862915 -4.300036907196045
00000000: 0000 0080 2540 20c0 0000 0000 5e01 f1bf
00000010: 0000 00a0 92aa e03f 0000 00e0 983b 1240
00000020: 0000 00a0 fa50 f33f 0000 0000 e1af e5bf
00000030: 0000 0080 c473 e1bf 0000 00a0 d05d d5bf
00000040: 0000 0060 380a f63f 0000 0020 3067 dcbf
00000050: 0000 00a0 fd6e a73f 0000 00c0 015c d53f
00000060: 0000 0040 afa0 1240 0000 0020 184f f0bf
00000070: 0000 0040 70fc 02c0 0000 0000 7298 04c0
00000080: 0000 00c0 da74 d4bf 0000 0000 87fd 0240
00000090: 0000 0020 d74d df3f 0000 0060 52ce d6bf
000000a0: 0000 0060 537e e7bf 0000 0080 a025 b63f
000000b0: 0000 0040 b41e fdbf 0000 0000 eb7b e33f
000000c0: 0000 00e0 fe2b d7bf 0000 00c0 a070 d8bf
000000d0: 0000 0020 f4a1 ba3f 0000 00c0 1396 fd3f
000000e0: 0000 0080 55da e23f 0000 00a0 bce6 05c0
000000f0: 0000 00e0 f341 0340 0000 0000 bd44 f1bf
00000100: 0000 0020 4900 09c0 0000 0080 bfca e83f
00000110: 0000 00a0 c179 f03f 0000 0020 ae68 f6bf
00000120: 0000 0040 231b ddbf 0000 0060 e5f0 e0bf
00000130: 0000 0020 c006 b4bf 0000 0040 5284 f13f
00000140: 0000 0060 48fc 7dbf 0000 0020 91c6 f6bf
00000150: 0000 0020 9b6b f63f 0000 0060 77a0 e8bf
00000160: 0000 0020 bf59 febf 0000 0000 3d0d efbf
00000170: 0000 00c0 371e 00c0 0000 0060 d470 d1bf
00000180: 0000 0020 4d48 0040 0000 00e0 9fc3 f5bf
00000190: 0000 0040 ebdd 03c0 0000 0000 6887 ec3f
000001a0: 0000 0080 1361 dcbf 0000 0060 6492 febf
000001b0: 0000 00c0 000a f6bf 0000 00a0 b112 11c0
000001c0: 0000 0080 b13f ce3f 0000 00a0 4f48 d83f
000001d0: 0000 0000 10d9 edbf 0000 00c0 9c0a f2bf
000001e0: 0000 00a0 0ed1 d13f 0000 0060 5f7d fabf
000001f0: 0000 0080 efe3 fbbf 0000 0000 4c82 fe3f
00000200: 0000 0020 50ed e8bf 0000 0060 570d f8bf
00000210: 0000 00e0 1772 f73f 0000 0080 8bd2 ecbf
00000220: 0000 0020 6ec2 fbbf 0000 0060 6327 dbbf
00000230: 0000 0080 42e6 e6bf 0000 0020 29f2 eb3f
00000240: 0000 0080 3b14 09c0 0000 0000 d322 0640
00000250: 0000 00e0 d779 0f40 0000 0000 163b 1540
00000260: 0000 0040 0488 f2bf 0000 0060 79d3 e5bf
00000270: 0000 0000 579f 16c0 0000 00a0 1651 0b40
00000280: 0000 00a0 84fb d1bf 0000 00a0 4fb6 b43f
00000290: 0000 0060 369d e4bf 0000 00c0 c5bb f5bf
000002a0: 0000 0000 541b 1440 0000 0040 8083 0cc0
000002b0: 0000 0020 508b 13c0 0000 00e0 f05d f7bf
000002c0: 0000 0080 e039 cfbf 0000 00e0 3c33 11c0
